app/src/main/assets/fer_model.tflite (tflite, 691988 bytes, 34 tensors)

sequential/separable_conv2d/separable_conv2d/depthwise1 f4 [1, 3, 3, 1]
000000 b3 31 a9 3d 3d d8 28 3e e5 49 bf 3e 3e fa 80 3f
       0.082614325 0.16488738 0.37361065 1.0076368
000010 a0 1f 6d c0 ce a1 d6 be 18 70 1c bd 3b 08 71 3d
       -3.7050552 -0.41920322 -0.03819284 0.05884574
000020 60 22 41 3e
       0.1886077

sequential/separable_conv2d/separable_conv2d f4 [48, 1, 1, 1]
000000 80 1a 37 3f f9 62 93 3f 61 fa 76 3f a9 20 db 3f
       0.7152481 1.1514579 0.964758 1.7119342
000010 cd b2 d7 a4 62 da 3d 3e 87 33 11 b3 4d 2a f3 3f
       -9.354429e-17 0.18540338 -3.3807307e-08 1.8997284
000020 a4 de 76 bd 87 a7 00 40 53 c9 8a a9 64 eb 44 bd
       -0.06027092 2.010225 -6.163355e-14 -0.04807605
000030 b2 ad 64 bf 18 e4 f9 3f 93 90 88 a6 b4 59 3e 20
       -0.8932754 1.9522734 -9.476083e-16 1.6123306e-19
000040 f9 da 07 40 29 e6 1a bf 79 6b be bf 6a 84 da 3f
       2.12274 -0.60507447 -1.4876548 1.707166
000050 06 9d 33 bf d4 14 ff 3f 19 02 1c 40 a9 5b 84 be
       -0.70161474 1.9928231 2.437628 -0.2585118
000060 26 9d 04 40 61 9d e3 a4 3a 19 a9 3f 96 fe 51 be
       2.0720916 -9.871217e-17 1.3210824 -0.20507273
000070 6a 75 08 40 fa 6a e4 bf 50 ca dd 3d 4e 02 93 bf
       2.1321664 -1.7845147 0.10829604 -1.1485078
000080 4e 8a 43 26 6b 81 f5 3f 3d 46 8e bf 0b 8e c6 aa
       6.7841653e-16 1.918012 -1.1115185 -3.5270428e-13
000090 b0 b7 00 af fb 82 e2 3f 53 4f 64 3f d9 8d 78 a9
       -1.1706791e-10 1.7696222 0.8918354 -5.5190095e-14
0000a0 60 ff 1d a9 cf 3b 2d 40 3e d0 4e 3a 2c ca 00 c0
       -3.5082505e-14 2.7067754 0.0007889307 -2.0123396
0000b0 22 d9 dd 3f c0 23 15 c0 a2 b0 5d bf 85 67 ff bf
       1.7331889 -2.330307 -0.86597645 -1.9953467

sequential/separable_conv2d_1/separable_conv2d/depthwise f4 [1, 3, 3, 48]
000000 1b 4e 91 be 53 39 1f 3f 34 82 52 bf 43 23 b0 3e
       -0.28379902 0.62196845 -0.82229924 0.34401903
000010 eb 65 97 3e 99 01 43 be df 0b 1e 3e 53 fb 53 bf
       0.29569945 -0.19043578 0.15434216 -0.82805365
000020 80 f7 e5 bc 64 7e a7 bf f9 c1 bd bd 71 48 e3 3e
       -0.028072119 -1.3085446 -0.09265513 0.44391206
000030 76 e3 70 bf bb 0c 13 3f 73 45 f2 3d 48 6e 1e 3c
       -0.9409708 0.574413 0.11829653 0.009669848
000040 71 c8 0f 3e fc c3 6e bd a7 e4 06 be 7c b7 2d 3d
       0.14041306 -0.058292374 -0.13173161 0.042411312
000050 1f d0 48 bf d8 96 26 3f f4 a2 5e be 0d cf 85 be
       -0.7844257 0.6507392 -0.21741849 -0.2613453
000060 34 4b cb bd 7d 76 55 3e b9 ca cf 3e 69 20 11 3e
       -0.09926453 0.20845981 0.40584353 0.1417252
000070 35 18 82 be 16 35 06 be e4 51 21 3f 43 9f d6 3d
       -0.25409093 -0.13106188 0.6301558 0.104795955
000080 b1 06 07 3f 4f fd 15 3f da b2 3f 3f ef 80 e5 3e
       0.52744585 0.58589643 0.7488228 0.4482493
000090 27 3f f2 bd d4 e5 26 3f 3e a7 7c 3e fe 02 57 3e
       -0.118284516 0.6519444 0.24673173 0.20997235
0000a0 3d 60 1d 3c 20 87 0e bd 2f a1 00 3e 1e a1 28 bf
       0.0096054645 -0.034796834 0.12561487 -0.65870845
0000b0 45 90 8a bf 6a 8a 65 3e f7 4e 45 3f 8f 1d 00 3f
       -1.0825278 0.22416082 0.77073616 0.500451
0000c0 99 e6 d1 3e 35 38 00 3e ee f9 99 bf 50 a9 8b bf
       0.40996245 0.12521441 -1.2029397 -1.0911045
0000d0 91 ad 78 3e df ca 07 3f e9 64 8d be 7d eb d1 bf
       0.2428496 0.5304393 -0.2761605 -1.639999
0000e0 3f 7a 81 3c 03 36 47 3e ab 52 1a be 2c b3 6e 3e
       0.015805362 0.19454198 -0.15070598 0.23310536
0000f0 cf f1 4f bf b8 71 ac 3f 4f 4c 93 3c c2 d4 1b 3d
       -0.81228346 1.3472204 0.017980723 0.0380447
000100 21 2c c8 3d 06 ff 0b be 79 74 82 3e cf 5e 10 be
       0.09774042 -0.13671502 0.25479487 -0.14098667
000110 4a 14 aa be 66 1c 25 bc de f5 42 bf 27 18 84 3f
       -0.33218604 -0.0100775715 -0.76156414 1.0319871
000120 df 68 33 bf 25 29 6d 3d ff 61 83 3f c4 eb ce be
       -0.70081896 0.057900567 1.0264281 -0.4041425
000130 c8 70 bd bf 94 38 fa 3e 97 6c 08 bf 19 9c 88 3d
       -1.4800043 0.4887129 -0.53290695 0.06670398
000140 9c 01 85 3f c4 a9 31 3f 60 35 dd 3e c4 69 54 bf
       1.0391116 0.69399667 0.43204784 -0.82973886
000150 85 b3 a2 3e e9 fc dc 3d b0 49 9b be 9a 5a 3a 3e
       0.31777588 0.10790426 -0.30329657 0.18198624
000160 96 d2 48 3d ae 6c bf 3e 6e 3a ab bd 95 33 91 bf
       0.049028955 0.37387604 -0.08360754 -1.1343867
000170 2e 77 db be 31 7e 74 3f 7d 97 3f 3f e2 5c aa be
       -0.42864364 0.9550505 0.7484053 -0.3327399
000180 70 93 17 3f 23 5b 54 3f d3 09 2b 3d a5 db c1 3e
       0.59209347 0.82951564 0.041757416 0.37862888
000190 b2 e2 49 3e ec 81 d5 3d 25 59 55 3e 4c 4d 90 bd
       0.19715384 0.10425171 0.20834787 -0.07045993
0001a0 0f c6 17 3d 06 1e 22 3f 9c d0 ba 3d 56 ae aa 3e
       0.037054118 0.6332706 0.0912182 0.33336133
0001b0 23 d5 1a 3d ee 52 5c 3f 65 0d 98 bd 1a 4c 64 bd
       0.03780092 0.8606404 -0.0742443 -0.05573664
0001c0 a2 2f e5 be 07 e7 ed 3e 2a a2 5b 3f 16 ba a3 3e
       -0.44762903 0.46465322 0.8579432 0.3197791
0001d0 ae 4b fb 3e 1a d7 88 bf f1 76 2b bf 23 40 98 3d
       0.49081177 -1.0690644 -0.66978365 0.07434108
0001e0 9e 70 cc 3e 1d 1a eb bd 91 ce 62 3f 13 11 38 3f
       0.3992967 -0.1147959 0.88596445 0.71901053
0001f0 f5 bf 61 bf 96 8d ea 3e 2f 3c c8 bf 74 7c 6e be
       -0.8818353 0.45811146 -1.5643367 -0.23289663
000200 2c d4 e8 3e c3 63 37 3f c0 7f 32 3f 37 4c 5d 3f
       0.45474374 0.716366 0.6972618 0.8644442
000210 66 4d 91 be bf 03 ab bf 8b 4e 51 bf a7 89 bc 3d
       -0.28379363 -1.3360518 -0.8176047 0.092059426
000220 db d8 0c be 84 9d 19 3a 37 91 0c be 5c 93 83 bf
       -0.13754599 0.00058599585 -0.1372727 -1.0279346
000230 3a 52 83 3e 7f 0c bc be 49 2b d2 3c 3a 30 50 bf
       0.2564867 -0.36728284 0.025655406 -0.8132359
000240 88 41 20 3f dd 7a 40 bf cf 31 5d 3e a1 79 74 bf
       0.6259999 -0.75187474 0.21601032 -0.9549809
000250 9f df 89 3d f7 90 2b bf a4 b9 bd be 08 41 ad 3e
       0.067321055 -0.67018074 -0.37055695 0.33838677
000260 1d 76 27 3d ff 15 63 bf 67 34 c8 3e 4b b6 ab 3e
       0.040884126 -0.8870544 0.3910248 0.33537516
000270 65 a8 ab 3e b3 ca c3 3e 48 42 6e bd 69 f8 8b be
       0.33526912 0.38240585 -0.05816868 -0.2733796
000280 c3 0c 7f 3f 70 c1 74 bf 38 38 bb bf 43 e7 50 3f
       0.9962885 -0.9560766 -1.4626532 0.8160288
000290 87 4e 05 be 1c b8 ab be 29 44 6d 3f 0a 55 4d bf
       -0.13018237 -0.33538902 0.9268213 -0.80207884
0002a0 a5 9a cf bf c7 50 9b bc 81 39 1f be 51 4e 40 3c
       -1.6219069 -0.018959416 -0.1554928 0.011737422
0002b0 86 bc 81 3b d5 cc 93 bf 6d 77 f2 3f d2 e2 94 3f
       0.0039592413 -1.1546885 1.8942696 1.163172
0002c0 a2 3c 7f bf 6d c1 8c 3e 6e 0e 04 3f 2c be 52 3f
       -0.99701893 0.27491322 0.5158452 0.8232143
0002d0 d3 ad be be 6f b3 96 3f 1f e6 29 bf a4 3e 02 3f
       -0.37241992 1.1773509 -0.6636676 0.5087683
0002e0 54 bb 6d bb 5d a4 87 be e6 b4 53 bb e2 fd 19 be
       -0.0036274986 -0.26492587 -0.0032303869 -0.15038255
0002f0 0e 64 a0 3d 97 d1 f6 bd 0f 89 51 3f 6a c5 88 3f
       0.07831584 -0.12051695 0.8184976 1.0685246
000300 25 bf 06 c0 78 5c f7 bf db eb d5 be fb 42 2e c0
       -2.1054165 -1.9325094 -0.41781506 -2.7228382
000310 92 56 af bd 96 3a 6c 3e 79 b4 d0 be dd 0c de be
       -0.08561434 0.23069224 -0.4076269 -0.4336919
000320 f6 7c 88 3d 51 d4 93 3e 4a b4 b1 be 5b f9 bd be
       0.066644594 0.28872922 -0.34707862 -0.37104306
000330 c7 74 56 3f c7 5a 8f bf 4c 14 d4 bd cd 2f d8 3d
       0.8377194 -1.1199578 -0.10355434 0.10555992
000340 85 1b ad 3f 94 e7 36 be 94 19 21 be a1 6d d4 3e
       1.3524023 -0.17861778 -0.15732414 0.4148989
000350 87 46 92 3f 06 3e 46 bf 54 92 d6 3f 10 9f 2b 3f
       1.1427773 -0.7743839 1.6763406 0.67039585
000360 a0 fc 14 bf 20 06 ef bd ff 7c 7b bf d9 92 6a bf
       -0.58197975 -0.1167109 -0.98237604 -0.9163032
000370 42 f4 a9 be 9d a2 94 bf 8d 29 97 3f 96 0f 74 bf
       -0.33194166 -1.1612126 1.1809555 -0.9533628
000380 c5 7a 55 bf 5e 3b 54 bf ad 58 aa 3e 91 e9 9c bf
       -0.83390456 -0.8290309 0.3327078 -1.2258779
000390 2e 7b e3 3e 01 5b a9 be 22 fa 74 bf 35 a2 52 3e
       0.44429916 -0.33077243 -0.9569417 0.2056969
0003a0 a2 93 ff 3d 4a d3 07 c0 16 9f 0c 3e 2b 9c 9a be
       0.124793306 -2.122271 0.13732561 -0.30197272
0003b0 e6 84 5b 3f e8 f9 18 c0 f5 25 f2 3e 34 0f ab be
       0.8574966 -2.390253 0.47294584 -0.33410037
0003c0 45 65 07 3e 2c c0 37 3f ad 0d 69 3f 66 9e 64 be
       0.13222225 0.71777606 0.9103649 -0.22326049
0003d0 8c f6 31 3d 64 98 b5 be 55 11 c8 3e 87 59 39 3f
       0.043448016 -0.35467827 0.39075723 0.7240223
0003e0 7b c7 21 3e 01 86 17 be 67 3e 48 3e df e7 46 3d
       0.15798752 -0.14797212 0.19555055 0.048560973
0003f0 4e d6 18 3e f4 2f ea bf bc 8f 5c 3d 9c 45 1c 3e
       0.14925501 -1.8295884 0.053848013 0.15260929

sequential/separable_conv2d_1/separable_conv2d f4 [48, 1, 1, 48]
000000 f8 6b 47 3d 48 cd 1a 3e 9d 92 1f 3d c0 88 01 3e
       0.04868695 0.15117371 0.03895818 0.12649822
000010 a0 e6 91 bc 99 83 80 bc 0e d2 24 bb 46 49 0c bd
       -0.017810166 -0.01568775 -0.0025149616 -0.034249566
000020 ef 6f 41 bc 5e 6c 48 bc 1a 9e c1 bc 6f 26 fa bc
       -0.011806472 -0.012232868 -0.023634959 -0.030535905
000030 ad 44 3d 3d f2 f9 8e bd e5 93 e0 3b 6c 13 a6 bc
       0.046208072 -0.06981267 0.006853568 -0.020272933
000040 23 b7 f5 3c 71 8b 8a bc b5 a8 ce bd 42 e0 23 3e
       0.029994553 -0.016912194 -0.10090772 0.16003516
000050 da 18 49 bd 50 b9 93 be ec d9 32 be 39 31 90 bc
       -0.049095966 -0.2885232 -0.17465943 -0.017601596
000060 4f 32 08 3e ad ec f6 bc f1 b7 08 bc d2 10 9a bc
       0.13300441 -0.030142153 -0.008344636 -0.018806849
000070 b6 ba b0 bd 56 8b 7d be c8 b4 42 3e 1c 49 2d bb
       -0.08629362 -0.24760184 0.19014275 -0.0026441282
000080 5c 5a cb bd 4c bb 5d 3d ae 74 82 3c bb 53 98 bd
       -0.09929344 0.0541337 0.015924778 -0.07437845
000090 b5 df d4 3b e7 7a 2b be fe f3 10 be 5d ff 1f bd
       0.0064963945 -0.16746102 -0.14155576 -0.039061893
0000a0 86 a1 a7 3c 21 d6 8e 3d a4 bd 98 3d d4 d2 6e 3e
       0.020462763 0.069744356 0.07458046 0.23322612
0000b0 6f 87 8d bd 87 46 cf bd 04 ed 1a 3c 23 ce e3 3d
       -0.069105975 -0.10120874 0.009455923 0.11123302
0000c0 64 07 4e 3e 30 fd 18 3d e7 c0 53 3e e5 7c 95 bd
       0.20120007 0.037350833 0.20679055 -0.07299212
0000d0 a2 a3 0d be d9 3a 35 bc ee 39 b7 3d 3d a0 c4 3e
       -0.13831952 -0.011061394 0.08946596 0.38403502
0000e0 1f 52 66 3c a7 45 dc 3e 8d b7 08 bd 0f 15 a9 3d
       0.014057665 0.4302189 -0.033378173 0.0825597
0000f0 e8 a4 c8 bd 35 b4 cd bc 80 d1 cd 3d d2 25 d1 3d
       -0.09797078 -0.025110343 0.100497246 0.10212292
000100 72 71 8f bd 91 b1 58 3c ea ec ce 3c d9 9f 55 be
       -0.0700406 0.013225929 0.025259454 -0.20861758
000110 52 9e c4 be d5 82 dc bd 50 a0 cb 3e d8 00 ab bd
       -0.3840204 -0.10767142 0.39770746 -0.0834977
000120 db 0d 9c be 33 68 9c 3d 41 41 6d 3d da 3d 1a be
       -0.3047932 0.07637062 0.05792356 -0.15062657
000130 92 1f 5d 3d cf 1e 33 be 69 6d cb 3c 07 fd 29 3e
       0.053985186 -0.17492221 0.024832444 0.16600429
000140 89 c3 27 3e 13 24 03 be 27 a9 08 3e c0 09 07 3d
       0.16383184 -0.1280673 0.13345776 0.032968283
000150 fe 79 ce bd 14 9b 84 bd 81 0d cd 3d fa 03 10 3e
       -0.10081862 -0.06474891 0.10012341 0.14064017
000160 bf c0 b4 bd 8e 27 3d 3e 32 e9 53 3d 76 48 2e bd
       -0.08825826 0.1847212 0.051736064 -0.042549573
000170 72 d2 ec 3e e5 13 13 ba 85 69 a8 3e 34 82 b6 3e
       0.46254307 -0.00056105695 0.32893005 0.35646212
000180 4a de 8d be df dd 51 be 43 7e 22 3d a0 67 0a 3e
       -0.27708656 -0.20494793 0.039671194 0.13516092
000190 99 c7 ea bd 29 f9 59 be 32 ce 16 be a6 ac e0 3c
       -0.114638515 -0.21286453 -0.14727095 0.027426075
0001a0 bb ec 09 bd 45 c3 af be e5 e7 ff 3c 56 ab db bd
       -0.03367303 -0.34328666 0.031238506 -0.10726039
0001b0 2a c1 a0 be 8e a8 c8 be 61 f1 0b 3c cf 6d c8 3d
       -0.31397372 -0.39191097 0.008541436 0.09786569
0001c0 39 7b e9 3d 10 03 84 bc 5e 2a 06 3e 1f 6b 53 3d
       0.11400456 -0.016114742 0.131021 0.05161583
0001d0 0e 70 60 be e2 50 88 bd 82 27 1e 3e 09 cb 3a be
       -0.21917745 -0.06656052 0.15444759 -0.18241514
0001e0 17 3a c7 bc e5 3b 07 bd 75 9e 89 be 07 45 44 bd
       -0.024319692 -0.033016104 -0.26878706 -0.047917392
0001f0 73 f1 44 3e 33 ee cf 3e 04 20 7b 3e 6f fb 40 bc
       0.1923273 0.4061142 0.24523932 -0.011778696
000200 47 18 53 3e 8e dd a7 be a4 da 7b 3c c9 e1 4f 3d
       0.2061473 -0.3278622 0.015371952 0.050752435
000210 ac a3 41 bd 7e 1a d9 3d b7 59 8b bd 0d 1c 11 bd
       -0.04727523 0.10600756 -0.06804221 -0.035427142
000220 10 3d 4e bd e9 1f 5e be 2b b4 b0 bb ef e3 c0 be
       -0.050351202 -0.2169186 -0.0053925714 -0.376739
000230 cb dc 67 3d 9a 98 f4 3e cd a2 97 3d 3a bb b4 be
       0.05660705 0.47772676 0.07404099 -0.35299093
000240 58 76 32 be 7b bc 94 be f0 2d 51 be 65 03 97 3d
       -0.17427957 -0.2905005 -0.2042768 0.07373694
000250 6e fc 09 3d 36 5d bd bc 4d f9 ec bd d4 a1 b1 bb
       0.033688 -0.023115736 -0.11570988 -0.0054209027
000260 6b 19 a7 3b 55 f8 ce 3d 75 69 9e 3d 98 3a be 3d
       0.0050994656 0.10105959 0.07734958 0.092885196
000270 93 ca 2b be 1d 10 b2 3e 51 cc 5f 3d 25 1d 67 bc
       -0.16776495 0.34777918 0.05463821 -0.01410607
000280 a6 94 db 3d 9b 16 66 3e 3b af 18 3e 3f 64 df bd
       0.10721712 0.22469561 0.14910595 -0.10907792
000290 46 5e c0 bd ac 16 d4 3d c1 a4 a2 3e 93 13 00 be
       -0.09392981 0.10355887 0.31766322 -0.12507467
0002a0 b0 2e aa be 1f 0b 06 3c ab f1 50 3e 43 84 1f 3e
       -0.33238745 0.008181362 0.20404689 0.15577798
0002b0 bf 65 9f be 7a 3d 0c 3e 10 24 80 3e 0e db d3 3d
       -0.31132314 0.13695326 0.25027514 0.10344516
0002c0 38 cc b4 3c 8f 94 b9 3d 7d db 83 bd c3 0c 1d 3e
       0.022070035 0.090615384 -0.064383484 0.153369
0002d0 7f 7d 72 bd ed 0f f9 3c 28 27 62 be 42 bc db bd
       -0.059201714 0.030403102 -0.2208525 -0.10729267
0002e0 15 ba f8 3d c8 16 31 be a6 fb 85 3d 9a 4a 9b 3e
       0.12144867 -0.17293847 0.06542139 0.30330354
0002f0 9e 73 c7 3d 1d be 8a 3d 9f 79 87 be a9 80 39 3e
       0.09738849 0.067745425 -0.26459977 0.18115486
000300 2e ec d5 bd ee 24 e7 bd 93 6b ba bb ff 61 85 bd
       -0.10445438 -0.11286341 -0.0056890934 -0.06512832
000310 16 7c 42 3d d5 c3 6e bd b6 f1 30 3d 65 ca dd bd
       0.04748162 -0.05829223 0.043199264 -0.10829619
000320 81 26 7a bd a6 33 ae bd e5 28 0b bd 2b e6 cc 3d
       -0.061071876 -0.08505945 -0.033974547 0.100048386
000330 df f5 25 be 3f 97 8c 3d 2e ee 8f 3c d4 07 6c bd
       -0.16207074 0.068647854 0.017569628 -0.057624653
000340 27 77 7f 3e 9c a6 a4 3d 8a 6b b7 3d 82 73 fd 3d
       0.24947797 0.08039591 0.08956058 0.12375547
000350 1c b8 a7 bb 29 5b 5a be b7 89 7f 3d 66 ba 8d bd
       -0.005118383 -0.21323837 0.062387194 -0.06920318
000360 2f 14 47 be 91 dc 87 bb ca 0b 2a be e8 a2 0f 3e
       -0.19441293 -0.0041461666 -0.1660606 0.14026988
000370 90 0a e4 bd d2 b9 1b 3d 6d c6 79 bd f3 2b 04 3e
       -0.11134827 0.03801901 -0.06098025 0.1290739
000380 80 65 44 be d0 69 2b be 3c 13 c2 3d a0 0e 8c 3d
       -0.19179344 -0.16739583 0.09476325 0.06838727
000390 ab 59 97 ba 02 e3 cd bd 0f d4 71 bd 80 f1 af 3d
       -0.0011547109 -0.10053064 -0.059040125 0.08590984
0003a0 c2 93 ad 3c b2 23 67 be c4 d0 11 3d 5b 69 21 be
       0.02118862 -0.2257221 0.035599485 -0.15762846
0003b0 ad 68 e4 bc 59 0f 84 3d e7 27 61 3e 9d 70 87 3b
       -0.027881945 0.0644824 0.21987878 0.0041332976
0003c0 f9 b2 e4 bd 04 e9 6c be 06 96 04 3d 47 dc 29 bf
       -0.11166949 -0.23135763 0.032369636 -0.6635174
0003d0 8a e4 de 3c d1 57 32 bd 68 a4 51 bd 73 c4 db 3e
       0.027208585 -0.04354078 -0.05118218 0.42923316
0003e0 c0 22 a6 3c 76 5f 30 3e 42 5d 39 3d 41 0a 63 bd
       0.020280242 0.17223915 0.045254953 -0.0554297
0003f0 85 89 30 3b 10 84 88 bf 35 9f 31 3d 3f 3a 4c bd
       0.0026937437 -1.0665302 0.043364722 -0.049860235

sequential/separable_conv2d_2/separable_conv2d/depthwise f4 [1, 3, 3, 48]
000000 2c 6d 8b bf 34 6b 95 be 38 40 18 be a9 59 a5 bf
       -1.0892692 -0.29183352 -0.14868248 -1.2917987
000010 98 9a 5f bf 60 95 0e be 49 b6 b6 be 8a 9c 80 3f
       -0.87345266 -0.1392417 -0.35685948 1.0047772
000020 ba bf 2d 3f eb b5 21 bf 4a ad 43 bf 72 00 a3 3f
       0.67870677 -0.6316821 -0.76436293 1.2734511
000030 9d a3 85 bf 5d 0b 57 3e ab 35 57 bf ec 37 2e 3f
       -1.0440556 0.21000428 -0.84066266 0.6805408
000040 6b 82 93 3e 3e 3a 1e 3e 5c 23 cc be da f5 d3 bd
       0.2881044 0.15451905 -0.39870727 -0.10349627
000050 22 fb 48 3f 68 d3 1c bf 74 83 6e 3e 27 82 d1 be
       0.785082 -0.6126008 0.23292333 -0.4091961
000060 ae 4b 91 be 65 0c 10 bf 57 3f 96 3f be fe c4 bf
       -0.28378052 -0.5626891 1.173808 -1.5390241
000070 41 8c 2b bf c1 f0 61 3f 4e d7 5f bf 27 e7 82 3f
       -0.67010885 0.88257986 -0.87437904 1.0226792
000080 1d d1 c6 3e 78 cc 50 bf d2 ee 75 3f 87 3d 19 3f
       0.38831416 -0.81561995 0.96067536 0.5985951
000090 9b e3 61 3f b5 ef 6c 3f 1d 5a 64 3e e7 8c 84 be
       0.88237923 0.92553264 0.223 -0.2588875
0000a0 a0 62 76 3d 72 5f d4 bf 64 77 83 3f c5 6a 3e 3f
       0.06015265 -1.6591628 1.027081 0.7438167
0000b0 6a 5d 66 3e 5d 07 85 3f 9f af af be 12 41 0d bf
       0.22496572 1.0392872 -0.34313676 -0.55177414
0000c0 28 e5 18 bd c5 4a b1 be cd 0f 7f 3e 2f 52 ec be
       -0.037327915 -0.34627357 0.24908371 -0.4615645
0000d0 af ac 85 3c 2f fc 18 bf 62 dd b2 bf d3 44 06 3d
       0.016317694 -0.597598 -1.3973811 0.03278048
0000e0 e8 44 83 3f 34 87 a8 be 42 83 b0 bf c3 47 8c 3f
       1.0255404 -0.32915652 -1.3790057 1.09594
0000f0 78 11 ad bf b1 33 68 bf f3 df 91 bf 42 1d 7e be
       -1.3520956 -0.90703875 -1.1396469 -0.24815848
000100 ed 65 8b bf f1 da 41 3f 36 14 b4 bf 2e c3 4e 3e
       -1.089048 0.75724703 -1.4068668 0.20191643
000110 85 f0 39 3f e1 ea ac be 4c 8a 2d bf 9d 85 21 3e
       0.7263263 -0.33772948 -0.6778915 0.15773626
000120 08 68 9a bf c5 d9 4d 3f a0 1f 9b 3e fd 23 7c be
       -1.2062998 0.80410415 0.30297565 -0.24623103
000130 f6 72 6c be 6e 15 56 3f e6 3a a4 bd 47 a3 ed 3c
       -0.23090729 0.8362645 -0.080190465 0.02900852
000140 90 00 86 bf 9e 2e 34 bf 5a 22 d4 3e 32 ce 83 3f
       -1.0468922 -0.7038363 0.41432458 1.0297301
000150 47 5a 19 bd f6 88 93 3f 53 45 d7 3e b5 e8 a0 be
       -0.03743961 1.1526172 0.42045078 -0.3142754
000160 fe f5 b9 3e 87 9b c4 bf ab b0 ec 3f 0f 75 45 3f
       0.3632049 -1.5359963 1.8491415 0.7713174
000170 4c 7e f8 be 2f a3 95 3f 69 8c 7b bd 19 96 b6 bf
       -0.48533857 1.1690425 -0.061413202 -1.4264556
000180 b6 69 39 3f 62 30 2e be c1 1a 91 3f ae 93 87 3f
       0.7242693 -0.17010644 1.133629 1.0591943
000190 be 00 74 bc 00 e2 42 bd 09 4f ec 3c 21 ff a6 bf
       -0.014892755 -0.04757881 0.02884628 -1.3046609
0001a0 a0 2a ab 3e f3 44 a5 3f 02 ff 88 bf 37 80 4e 3f
       0.33430958 1.2911667 -1.0702822 0.8066439
0001b0 7c 65 dd be fc 84 40 be 73 d1 83 be fd 14 bf 3e
       -0.4324149 -0.1880073 -0.25745735 0.373207
0001c0 82 d7 71 3e 38 8d 65 3f 7e 5b 9c 3f 30 5c 9a 3f
       0.23617366 0.8966861 1.2215421 1.2059383
0001d0 fd 57 96 3e ae 77 03 bf ca fa db 3d bb b7 d2 be
       0.29364005 -0.5135449 0.107411936 -0.411558
0001e0 e6 4e 02 bf 38 71 16 3e 64 18 8e bf 09 73 d2 3e
       -0.5090164 0.14691627 -1.1101193 0.4110339
0001f0 9d bc 1b 3f c0 a1 b1 bd c3 75 09 3f c8 2c f1 3c
       0.60834676 -0.086734295 0.53695315 0.029440299
000200 ba 0a 85 bd b5 a0 8a bf 32 36 b8 bf b6 57 6a 3f
       -0.064961866 -1.0830294 -1.4391539 0.91540086
000210 cd cd 12 be 32 7e 8c 3f e6 db 9b 3d 4b 4b 07 be
       -0.1433632 1.0976012 0.07610302 -0.13212316
000220 7a 5f c5 bd b4 49 9e 3e 79 f9 82 3f 94 2a d6 be
       -0.09637351 0.30915606 1.0232383 -0.4182936
000230 ef f0 bb bf f8 84 93 3d a5 19 82 3e b9 40 b3 bf
       -1.4682902 0.07203096 0.2541019 -1.4004127
000240 d1 ab fa be 70 78 6b 3f 78 48 86 be b1 4e dc bf
       -0.4895921 0.9198065 -0.26227164 -1.7211515
000250 0c da 5a 3f a3 58 ac be 28 52 74 bf 45 ff 22 3f
       0.85488963 -0.33661374 -0.9543786 0.6367076
000260 09 1c 27 bf 48 61 43 3f 3e 2b db 3f f0 f4 35 3f
       -0.65277153 0.76320314 1.7122571 0.7107687
000270 df 17 a7 3f da a3 85 3f 42 c1 97 3f 92 e2 6f 3f
       1.305416 1.0440629 1.1855853 0.93705094
000280 1b 83 e3 be d1 fe f2 3e ce 26 05 3f 29 87 08 3f
       -0.44435963 0.47460034 0.52012336 0.5333124
000290 0a 71 34 3f bd 1f 01 40 5b 7a 8d 3f a4 83 bd bf
       0.70484984 2.0175622 1.1052965 -1.4805799
0002a0 e0 32 7a bf 8c 36 a2 3f 77 e4 88 3f 43 04 48 bf
       -0.9773388 1.2672896 1.0694722 -0.781315
0002b0 c3 df 47 3f 4f db 9d 3f cd 62 0c 3f 54 65 8e 3f
       0.7807581 1.2332553 0.5483826 1.1124673
0002c0 a4 a4 18 3f 1e 8d 7e 3d 61 20 7c 3f 91 b8 40 3f
       0.5962622 0.0621463 0.98486906 0.75281626
0002d0 f4 73 8e be 89 b1 56 3f a7 5e 90 3f 2d c4 68 bf
       -0.2782284 0.8386465 1.1278886 -0.9092434
0002e0 f1 3d bb 3f 71 a2 2b bf 5e ae 86 3d b3 7e 35 be
       1.4628278 -0.6704474 0.06576227 -0.17724113
0002f0 6c ac b9 be 65 e0 5b bf 7e 75 12 bd 5a aa c4 3e
       -0.3626436 -0.85889274 -0.03575658 0.38411218
000300 50 78 82 bf e1 08 61 3e 95 a1 b6 bf 16 7b c8 3e
       -1.0192966 0.21976043 -1.4268061 0.39156407
000310 a3 dd 5f 3f f7 35 b3 bf ab 2a df be 9b 6d b2 be
       0.87447566 -1.4000844 -0.4358724 -0.34849247
000320 4a 6a ce bf e4 05 83 3f f8 7a 99 be fb a7 05 3f
       -1.6126187 1.0236173 -0.2997663 0.5220944
000330 42 39 0d 3f 46 3f 1a bf 17 29 8a 3f 30 1a ac bf
       0.55165493 -0.602528 1.079379 -1.3445492
000340 ad f9 a4 bf d2 7a f1 3d c7 f7 7b bf de 46 2b 3f
       -1.2888695 0.11791004 -0.98424953 0.6690501
000350 51 63 55 3f 6f 04 41 3f 2b 8f f7 bf b3 3e 02 bf
       0.8335467 0.7539739 -1.9340566 -0.5087692
000360 ac 20 95 bf ef a3 4b be 16 32 1d 3f 1d c8 13 3f
       -1.1650596 -0.19886754 0.6140455 0.57727224
000370 53 52 ea bf 9e 66 3b 3f 82 b2 ba 3f bf 90 f6 bd
       -1.8306373 0.73203456 1.4585726 -0.12039327
000380 dc 1c 4a bd c3 4e 73 bf f5 b4 6d bf 4c 69 85 3f
       -0.04934393 -0.95042056 -0.92854244 1.0422759
000390 f9 aa 2e 3f 41 8e 70 3f 97 9b 1b 3f 7a 10 e9 be
       0.68229634 0.9396706 0.60784286 -0.45520383
0003a0 e2 bf 45 3f 08 65 59 bf 5d c5 06 3f ca 95 8f bf
       0.77245915 -0.84919786 0.526449 -1.1217587
0003b0 3b 28 be be 1c 80 c5 3e 27 db a2 bf 59 06 b4 3f
       -0.37140068 0.38574302 -1.272313 1.4064437
0003c0 0f 17 fa 3e c7 42 0e bf db 0b 13 bf 22 de 3d 3f
       0.48845717 -0.55570644 -0.57439965 0.7416707
0003d0 7f 22 fe 3e ad ef a4 bf 13 f9 ea 3c 1e 88 03 3e
       0.49635693 -1.2885643 0.028683221 0.12844893
0003e0 07 6d a1 bf ec 4d 8e bf 1b 61 51 bf 51 62 f6 3e
       -1.2611398 -1.111753 -0.81788796 0.48121884
0003f0 d3 55 bc 3e 70 2e 13 bf 08 a2 1d bf ba b3 6e 3e
       0.3678423 -0.57492733 -0.61575365 0.23310748

sequential/separable_conv2d_2/separable_conv2d f4 [48, 1, 1, 48]
000000 50 32 82 3d cc 24 81 3d 79 d4 9e bc 0d 20 72 3d
       0.063572526 0.063058466 -0.019388424 0.059112597
000010 e8 b8 8d bb 5e 7e d1 3c 72 bb 39 3d 83 f6 1a bd
       -0.004325021 0.025572952 0.045344777 -0.03783275
000020 f9 23 39 bc 75 bc c1 bc 99 12 96 bd 44 9c 9a bd
       -0.01130008 -0.023649434 -0.07327766 -0.075493366
000030 26 a1 9a bc c3 05 c8 bc 98 59 0a 3d 28 65 0f bd
       -0.01887567 -0.02441681 0.03377685 -0.03500858
000040 bf 21 80 bd 0e 51 18 ba 22 8e 8e 3c c4 23 96 bc
       -0.062564366 -0.0005810418 0.017401759 -0.018327601
000050 0c 54 91 3c 69 71 aa bd 11 9f 9a bc 33 a4 b3 3c
       0.017740272 -0.083224125 -0.018874677 0.021928882
000060 a9 e6 72 3c 96 8b 41 3d 30 90 91 bb 92 cc 90 3d
       0.0148255015 0.04725226 -0.0044422373 0.07070269
000070 9b 29 93 3c f1 76 67 bd ca eb 20 be bf 7a cf bb
       0.017964175 -0.056509916 -0.15714946 -0.006331771
000080 87 be 19 3d 46 7e 31 bc 4f f0 26 3e d2 ad 05 3d
       0.037535217 -0.010833329 0.16302608 0.03263647
000090 84 c8 98 3d dc 1b d9 bd df 00 bb 3c 24 dd a8 3d
       0.0746012 -0.10601017 0.022827564 0.08245304
0000a0 46 0c 94 bd 8b 9a cd 3c d1 34 29 3c 3b 39 75 3d
       -0.072289035 0.025098106 0.010327534 0.059869032
0000b0 d1 98 80 bd 67 f5 10 3d 6e 1c 9e 3d 7e ec 21 3c
       -0.062791474 0.035390284 0.07720266 0.009883044
0000c0 7b ef 36 3d b8 ea a0 bc df f3 85 3c 4b f1 b3 bc
       0.04466198 -0.019643173 0.016351638 -0.021965643
0000d0 f2 54 68 bb ea c6 d8 3c 6e bf ea 3d 17 03 49 bd
       -0.0035451022 0.026462037 0.114622936 -0.049075212
0000e0 c6 3d 34 3d dd 82 15 be 35 07 9d bc 54 87 92 3c
       0.044004224 -0.14600702 -0.019168476 0.017886795
0000f0 c3 0f 46 3d 36 c7 84 ba ab 2d 96 3d 9d a6 90 bb
       0.048354875 -0.001013017 0.07332929 -0.004414393
000100 d6 2a e7 bc 98 40 c2 bd b4 a3 ff 3c 33 dd b6 bd
       -0.028218668 -0.094849765 0.03120599 -0.08928909
000110 f2 78 93 3c 3a 91 2f 3a ff 6c 83 bc 23 df f7 bc
       0.018002007 0.00066973607 -0.016043184 -0.030257767
000120 82 8e 75 3c 61 68 1f 3e b1 5b 9c bc 4d e6 91 3c
       0.01498759 0.15567161 -0.01908669 0.017810011
000130 e9 d4 3a 3d 37 ad 09 bd c4 26 7b bd b9 66 0e 3b
       0.045613203 -0.033612456 -0.061316267 0.0021728708
000140 aa cb d1 3c 01 18 be bc f2 ae 7a 3d 86 60 4d bc
       0.02560981 -0.023204805 0.061201997 -0.01253522
000150 61 ea 57 3c a3 a8 57 bd 42 0e 92 bb 68 1c 8d b9
       0.013178439 -0.05265106 -0.004457266 -0.0002691478
000160 21 32 c1 3d 96 1e c7 bc 52 96 dc 3c 4b 1d d3 3c
       0.094333895 -0.024306577 0.026927147 0.025770804
000170 ea 8f f2 bd 33 65 b3 3d cb 68 62 bc 8e fd 08 3d
       -0.11843856 0.087595366 -0.01381893 0.033444934
000180 91 8a 9a 3d d4 25 df 3c 98 84 07 3d 07 cb 4a bd
       0.07545961 0.027239718 0.033085436 -0.04951003
000190 7d 0c 43 3d 4e f8 e9 3c 6a 2b cb 3c e7 2d a8 bc
       0.04761933 0.028560784 0.024800975 -0.0205297
0001a0 2f 04 10 bc 7c f8 69 bb 8a a5 5d 3d ff 8a 4f bd
       -0.00879006 -0.0035701087 0.05411295 -0.050669666
0001b0 38 b1 0b bd a9 db 99 bd 83 bf d8 3b e6 0d dc bd
       -0.034104556 -0.075126 0.006614627 -0.107448384
0001c0 25 6f c9 bc c6 32 8f 3c 1a 4a b3 bd b6 55 c8 bc
       -0.02458913 0.017480265 -0.08754368 -0.024454933
0001d0 8a 32 cc 3c 22 84 d5 bd ed 77 96 3d 4a a2 ef bc
       0.024926443 -0.10425593 0.07347093 -0.02925219
0001e0 d7 94 8e 3c bc 0f 13 3d 56 d1 bb 3c c3 b6 c5 3c
       0.017404957 0.035903677 0.022926968 0.024135
0001f0 02 4d a6 bb 29 bd 3e bd 7a 1a 5a bd a1 2e 29 3d
       -0.005075098 -0.046567116 -0.053247906 0.041304234
000200 a2 d1 8c bd 4e 8d b8 3c ee 4f cc bb 7c 56 f5 3c
       -0.06875922 0.022528317 -0.0062351143 0.029948466
000210 f0 24 01 3e 19 bc fd bc d8 3d 8d bc e4 9f ca bb
       0.12611747 -0.030973481 -0.017241403 -0.006183611
000220 b3 0e be bb 2e e3 ad 3c 76 8a 01 bc 62 af a1 3d
       -0.005800092 0.021226492 -0.007906547 0.0789478
000230 e0 28 08 3d 93 75 84 3b 21 1f 12 3e 45 f8 55 bb
       0.033242106 0.0040423363 0.14269687 -0.00326492
000240 d5 47 c5 3d 45 54 0d bc f0 7b 9c 3c ea 31 0d 3d
       0.096328415 -0.008626048 0.019102067 0.03447143
000250 71 89 34 bd f4 04 61 3c 1e 02 05 be 04 cf 78 bc
       -0.044076387 0.013734091 -0.12989089 -0.015186075
000260 57 78 f2 bc a4 84 12 3d d8 44 2a bd f9 a0 7f bd
       -0.029598398 0.035771027 -0.04156956 -0.062409375
000270 46 27 f7 bd 0d b2 e2 ba ca 28 68 bd a0 82 48 3d
       -0.12068038 -0.0017295495 -0.056679524 0.0489527
000280 87 fe b7 3d b4 1f a3 3b 67 9b 8d 3b 46 f2 a8 bc
       0.08984094 0.0049781445 0.004321504 -0.020623337
000290 57 57 05 3c 7a e8 45 bb f0 e2 59 bc 4b 3e 20 3c
       0.008138499 -0.0030198381 -0.013298735 0.009780477
0002a0 0b 4d d2 3d 84 52 0f 3c ec 15 c9 bc 23 e7 b5 bd
       0.10268601 0.008747701 -0.024546586 -0.088819765
0002b0 07 cd 4f 3d bf 9f 51 bd 4d f0 ff bc 34 6f 5b 3b
       0.05073264 -0.051177736 -0.031242514 0.003348303
0002c0 67 82 3f bc 98 92 73 3d e1 e3 20 bd 21 12 3a bd
       -0.011688805 0.059465975 -0.039279822 -0.045427445
0002d0 17 d3 78 bc 34 40 37 3d fa b7 78 bd 8d 61 5b bd
       -0.0151870465 0.044738963 -0.06072233 -0.05355983
0002e0 f0 b5 ca bc e8 03 79 3c 88 52 d0 3c 10 51 21 3a
       -0.024744958 0.015198685 0.025429979 0.0006153742
0002f0 8f e7 c3 3d 0e a9 ad bd ed 64 99 bb eb b1 1d bd
       0.09565651 -0.0847951 -0.0046812207 -0.038499754
000300 8f 2a f0 bb b1 81 11 3d d9 f0 c8 39 eb 79 d2 3b
       -0.007329292 0.035524074 0.00038326418 0.006423225
000310 2b 37 ef 3c 71 2f 78 bd d1 87 7f bc 44 26 2a 3d
       0.02920111 -0.06059212 -0.015596346 0.0415404
000320 3f 9f 8a bc 2a cd d2 3d 88 5d 99 3b 37 f8 f4 3d
       -0.016921638 0.10293038 0.0046803392 0.11961406
000330 83 87 97 bc 6e 82 0f 3d 13 07 99 bc 0b 27 6e 3d
       -0.018497234 0.035036497 -0.018680131 0.058142703
000340 14 2d 23 3e f9 ff ad 3c 8e 2f ab bd 18 15 97 bd
       0.15935165 0.021240221 -0.0835868 -0.0737707
000350 7b 6f 9e bb 93 ff 55 3e b0 5e 5f 3c 03 2e 97 3d
       -0.004835067 0.20898275 0.013633415 0.07381823
000360 3b b5 43 3d 6f 9d 29 bd fe 83 86 bd 43 50 e8 bb
       0.047780257 -0.041409906 -0.06568144 -0.007089646
000370 19 3c 48 bd ba 68 bc bb 01 ea 61 3d 62 59 a4 3d
       -0.04888544 -0.005749789 0.055154804 0.08024861
000380 97 50 0e bd 99 dc cc 3c 7a 47 af bc 60 1b 22 be
       -0.034744825 0.025007533 -0.021396387 -0.15830755
000390 50 0b 8a 3c 45 c6 2b 3d 4a 7b 48 be cb ca ac bd
       0.016851097 0.04193713 -0.19578281 -0.08437117
0003a0 79 8d de 3c 7d 78 da bc ac fb 2d bd e5 71 65 3d
       0.027167069 -0.026668781 -0.04247634 0.05601682
0003b0 ab 05 5a 3d 92 76 f1 3d 04 5b d2 bb 56 a5 38 bc
       0.05322806 0.117901936 -0.0064195413 -0.011269888
0003c0 ea ce 18 bd 60 e7 01 bd cf 14 84 bb 38 39 f4 b9
       -0.037306704 -0.031714797 -0.004030801 -0.00046581938
0003d0 0f 01 73 3d 8c 86 3b 3d c6 15 77 bc e0 09 a4 3c
       0.05932718 0.04578261 -0.015080875 0.02002424
0003e0 f4 8b 23 3e f5 6e 64 bd e6 1c 16 3d 51 86 64 bb
       0.15971357 -0.05576988 0.036648653 -0.0034870098
0003f0 76 a1 4a 3d 06 9e f6 3c c8 1b 22 bd c5 8c 44 bd
       0.049470387 0.030104648 -0.039577276 -0.04798581

sequential/separable_conv2d_3/separable_conv2d/depthwise f4 [48]
000000 00 00 00 00 00 00 00 00 00 00 00 00 00 00 00 00
       0.0 0.0 0.0 0.0
000010 00 00 00 00 00 00 00 00 00 00 00 00 00 00 00 00
       0.0 0.0 0.0 0.0
000020 00 00 00 00 00 00 00 00 00 00 00 00 00 00 00 00
       0.0 0.0 0.0 0.0
000030 00 00 00 00 00 00 00 00 00 00 00 00 00 00 00 00
       0.0 0.0 0.0 0.0
000040 00 00 00 00 00 00 00 00 00 00 00 00 00 00 00 00
       0.0 0.0 0.0 0.0
000050 00 00 00 00 00 00 00 00 00 00 00 00 00 00 00 00
       0.0 0.0 0.0 0.0
000060 00 00 00 00 00 00 00 00 00 00 00 00 00 00 00 00
       0.0 0.0 0.0 0.0
000070 00 00 00 00 00 00 00 00 00 00 00 00 00 00 00 00
       0.0 0.0 0.0 0.0
000080 00 00 00 00 00 00 00 00 00 00 00 00 00 00 00 00
       0.0 0.0 0.0 0.0
000090 00 00 00 00 00 00 00 00 00 00 00 00 00 00 00 00
       0.0 0.0 0.0 0.0
0000a0 00 00 00 00 00 00 00 00 00 00 00 00 00 00 00 00
       0.0 0.0 0.0 0.0
0000b0 00 00 00 00 00 00 00 00 00 00 00 00 00 00 00 00
       0.0 0.0 0.0 0.0

sequential/separable_conv2d_3/separable_conv2d/depthwise1 f4 [1, 3, 3, 48]
000000 2f 74 b0 3d a3 53 a0 be 51 50 c9 3e 5e ec 25 3c
       0.0861591 -0.3131381 0.3931909 0.010127155
000010 5f df b0 3f c2 4c e6 3e 96 c2 26 3e 37 ac 6b bf
       1.3818167 0.44980437 0.16285166 -0.92059654
000020 a8 b2 bf bc b3 a6 4a 3f 61 d6 5d be f3 49 f7 bc
       -0.02340062 0.7916061 -0.2166381 -0.030186629
000030 cd e7 a0 bf 9d 33 27 bd a4 eb 14 bf 32 43 83 be
       -1.257074 -0.040820707 -0.5817206 -0.25637203
000040 e9 fd 68 3f cf 1f 87 3f 87 64 23 3e 1f 92 37 bd
       0.91012436 1.0556582 0.15956317 -0.044817086
000050 b7 a2 4c be ff ec ec 3e 9b 16 c4 3f 22 74 5d bf
       -0.19983946 0.46274564 1.5319399 -0.8650533
000060 69 99 ae bf 92 8a 17 3f ec 5f bc be 05 f7 22 3f
       -1.3640567 0.59195817 -0.36791933 0.6365817
000070 2e 01 cf 3e 05 a5 86 3c 8b a5 04 3f 6b 6c 3e bf
       0.40430588 0.01643611 0.518151 -0.7438418
000080 c2 58 56 bc c9 28 cc 3e 2d ac 61 3e c9 e3 f2 be
       -0.013082685 0.39874867 0.22038336 -0.4743941
000090 86 2b c5 be c7 20 25 bf 46 da 58 bf 5e aa 38 3f
       -0.38509768 -0.6450314 -0.8470806 0.7213496
0000a0 a3 ca 72 bc 7d 5d de be 53 4b 26 bf 65 6c a7 3e
       -0.01481882 -0.434307 -0.64958686 0.32699886
0000b0 35 45 6c 3e 46 b1 2b be fd 63 70 bf d1 8e fd 3e
       0.23073275 -0.16766843 -0.9390257 0.49523023
0000c0 d6 5f f4 bc 63 8d 0c bc d2 0b 50 3e 9f 34 7e be
       -0.029830854 -0.008578631 0.20317009 -0.24824761
0000d0 58 a2 40 3f 87 54 06 be d2 90 e8 be d0 50 f4 bd
       0.75247717 -0.13118182 -0.4542299 -0.11929476
0000e0 94 1c 39 be 07 15 cc be b5 fd 22 3c 7f c4 b6 be
       -0.18077308 -0.39859793 0.009948184 -0.3569679
0000f0 b6 d0 db be 8e 7d 7b bf 6a 31 4c 3e e8 4a 91 bf
       -0.4293267 -0.98238456 0.19940725 -1.1350985
000100 91 16 13 bf 46 d7 47 3d 51 10 03 bf 7b 17 9c be
       -0.5745631 0.048789285 -0.5119677 -0.30486664
000110 d8 e0 76 3f b5 0c 55 3e 93 5b 5a 3f 1c df 1e bf
       0.96436834 0.20805629 0.8529598 -0.6205919
000120 cd b0 8a bf f7 d5 6e 3d bc b0 c8 3d 4c a9 07 3f
       -1.0835205 0.05830952 0.097993344 0.529927
000130 b8 06 06 3f 9e ad 91 3c 72 fe 14 bf 78 2c 9a bf
       0.52354 0.017782982 -0.5820075 -1.2044821
000140 1a fa 69 bf 76 31 02 3e 0c 83 bc be 7e c7 07 3f
       -0.9139725 0.1271418 -0.3681873 0.53038776
000150 6b 06 bc 3d 3a dd 66 bd 19 c9 ea bf 15 6d 58 3f
       0.09180912 -0.05636332 -1.834262 0.84541446
000160 82 0b 69 3e 6c 2b 2b be f0 1e d4 be d5 af 46 3e
       0.22758296 -0.16715783 -0.41429853 0.19403012
000170 ca 10 f2 3f d4 f9 02 3f 10 05 8a bf 46 ac 6e bf
       1.8911374 0.5116246 -1.0782795 -0.9323162
000180 74 dc 5e bf eb 0d 59 3f aa de b0 3e 24 fe 04 bf
       -0.87055135 0.8478686 0.3454488 -0.5195029
000190 f9 99 a6 be 64 29 22 bf 5c 38 02 bf 88 2e 80 3e
       -0.32539347 -0.6334441 -0.5086725 0.250355
0001a0 55 32 ff bd 17 64 7c bf 9d 37 5d 3e 14 e5 32 3e
       -0.12460772 -0.98590225 0.21603246 0.17470199
0001b0 3c ab 94 be a4 02 a7 bc ac ca 9e 3e 2e db 72 be
       -0.2903689 -0.020387001 0.31014 -0.23716423
0001c0 22 8a 7d be 84 b1 09 bf e7 1d 80 3e 8a de 68 bd
       -0.24759725 -0.5378649 0.25022814 -0.056852855
0001d0 33 e0 06 3e 11 61 85 be ac ea 1f be ac bd 04 3e
       0.13171463 -0.26050618 -0.15616864 0.12962979
0001e0 94 56 50 3e eb c3 68 bf 64 34 c6 3d 61 e2 55 bd
       0.20345527 -0.9092395 0.096779615 -0.052217845
0001f0 49 2c 90 3f c6 25 d3 be 31 c1 9d 3e 70 b5 52 3e
       1.1263515 -0.41239756 0.30811456 0.20577025
000200 05 d5 0e 3d 3e bc 89 3e 77 4c 6c be 25 8f 9a 3e
       0.03487112 0.2690143 -0.23076044 0.30187336
000210 94 1a d8 3d c8 3e ab 3f 1e d9 dc be e3 83 a2 be
       0.105519444 1.3378534 -0.43134397 -0.31741247
000220 03 29 d1 3e e7 e9 93 be af df d9 3e 2f d6 9d 3e
       0.40851602 -0.2888939 0.4255347 0.30827472
000230 0d 24 47 3f 3e 41 9d 3f 0e 5e 68 bf e5 c7 ac bf
       0.77789384 1.2285535 -0.90768516 -1.3498503
000240 12 59 c3 3f fe 1d 1e bf 1b 48 fc be d8 9f 7b 3f
       1.5261557 -0.61764514 -0.49273762 0.9829078
000250 22 6d a9 3f 8b eb c9 3e b7 a3 c1 3f 60 82 16 c0
       1.323643 0.39437518 1.5128087 -2.3517075
000260 28 5b 30 3f 90 d0 8b 3f 50 5b 96 bf fb a1 7a bf
       0.68889093 1.0923023 -1.1746616 -0.9790341
000270 79 f0 64 bf 5b 33 e2 3e c0 55 8e bf 23 63 b9 bf
       -0.8942943 0.44179806 -1.1119919 -1.4483379
000280 eb 93 ee bd 0b 42 f4 3f e7 d8 0a be 8b 40 49 3e
       -0.11649307 1.9082655 -0.13559304 0.19653527
000290 fe f6 f7 bf f9 dc 47 3f 1e 27 8d 3f 2d 17 7b bf
       -1.9372251 0.7807155 1.1027563 -0.9808224
0002a0 7f fc 8d 3f 60 a3 c8 be 6e 90 f6 bf c4 1d 84 3f
       1.1092681 -0.39187145 -1.9262826 1.0321584
0002b0 7b d0 8f bf fd 67 88 3f 38 46 69 3c b1 82 99 bf
       -1.1235498 1.0656735 0.014237933 -1.1993009
0002c0 e2 ce 0b bf e3 e8 cc bd 21 64 36 3f 74 a2 e2 bd
       -0.54612553 -0.10005357 0.71246535 -0.11066142
0002d0 06 a9 fc be 18 c8 97 bf 6a 76 11 be 5c 87 fd 3f
       -0.49347705 -1.1857939 -0.14205328 1.9806933
0002e0 e2 c4 b7 bf b5 ba 18 3e 95 5b 82 bd 88 19 5c 3e
       -1.4356959 0.14914973 -0.06365124 0.21494114
0002f0 74 e6 64 bd 31 51 9b bf 45 57 59 bf c1 1a 78 3f
       -0.05588384 -1.2134153 -0.8489879 0.96915823
000300 d3 49 ee 3e 02 7e c3 3f 0d 8c 04 c0 32 ad b8 3f
       0.46540698 1.527283 -2.071048 1.4427855
000310 5b 0b 68 bd 01 03 ff be 49 be e5 3f 75 13 db be
       -0.056651454 -0.4980698 1.7948695 -0.42788282
000320 3b 6d dd 3e fd b0 1d bf 01 35 30 bf 8b a0 d6 bf
       0.432474 -0.6159819 -0.6883088 -1.6767744
000330 e9 1f 38 3f d6 05 0e c0 ee 43 56 bf e9 a0 a7 bf
       0.7192369 -2.2191062 -0.836974 -1.3095981
000340 e0 f8 03 c0 a1 97 ed 3d eb 8a b8 bf f0 85 98 3f
       -2.0620651 0.116011865 -1.4417394 1.1915874
000350 14 58 fd be 9c 45 23 40 01 85 d7 be 66 8e bd bf
       -0.4948126 2.5511236 -0.4209366 -1.4809082
000360 ce 45 21 be db 94 bd bf 64 7c df 3e b5 ac 50 bf
       -0.15749285 -1.4811052 0.4364959 -0.8151353
000370 36 3b 12 bf 93 5e 7d 3f 9a 74 0a c0 04 e3 a8 bf
       -0.571216 0.98972434 -2.1633668 -1.319428
000380 99 16 0b c0 cc 58 1f c0 be a9 05 c0 08 8f 0d c0
       -2.1732543 -2.4897947 -2.0884852 -2.211855
000390 17 f0 f9 3e c9 b3 00 bf 43 d7 54 bf ee dc 76 3f
       0.48815987 -0.5027433 -0.83140963 0.9643086
0003a0 07 26 16 bf 5b 5e ef 3f 94 34 a8 3f e9 cc f6 bf
       -0.58651775 1.870067 1.3141046 -1.9281284
0003b0 c0 bd 36 3f 22 f1 7c 3f 2d 13 b6 be e9 49 01 bf
       0.71383286 0.9880544 -0.35561505 -0.505034
0003c0 2a 65 e5 be 4e 88 dd 3f be 99 ad bf 23 59 2f bf
       -0.44803745 1.7307222 -1.3562543 -0.68495387
0003d0 29 d9 ad bf 54 e3 fc bf 8b 15 97 be 17 28 7b 3f
       -1.3581897 -1.9756875 -0.29508623 0.9810805
0003e0 a3 d3 c8 bc b0 9b c0 bf b0 ae ed 3f 72 bd 92 bf
       -0.024514979 -1.5047512 1.8568935 -1.1464064
0003f0 fe 16 35 3f 77 01 18 bf 6a a3 3d bf e1 0b 6e be
       0.7073821 -0.59377235 -0.74077475 -0.23246719

sequential/separable_conv2d_3/separable_conv2d f4 [96, 1, 1, 48]
000000 67 b5 03 bc b8 84 38 3c 9d 40 ef bc e8 6a 24 be
       -0.008038855 0.011262111 -0.029205615 -0.16056406
000010 6e 6b d5 3b b8 86 40 bc 37 77 96 bd 15 47 e6 3d
       0.0065130508 -0.011750869 -0.07346957 0.112440266
000020 d7 e6 cb 3a ed 4f 4b bd 57 83 5d 3b e0 56 7f 3b
       0.0015556467 -0.04963677 0.0033800208 0.0038961694
000030 ac 7d 58 3d ca b9 6d bd a8 08 50 3d c5 0f d7 3b
       0.052854225 -0.05803851 0.050789505 0.006563159
000040 74 6f a4 ba e1 99 d2 bd 8f e7 89 3c dd ec d0 bc
       -0.0012545423 -0.10283256 0.016834049 -0.02550357
000050 9a f2 c5 3d 2d dc bc bd 61 30 9a 3c 80 f7 05 bd
       0.09665413 -0.09221683 0.018821897 -0.032706738
000060 f7 c2 25 3d c3 23 9c bc 29 70 ec 3d 6e 79 fd 3d
       0.040469136 -0.019060021 0.1154483 0.123766765
000070 5f 8f 60 bd c7 90 f4 bd 78 c2 0c 3c 1c c8 8e 3a
       -0.05482423 -0.119416766 0.008591287 0.0010893377
000080 28 35 d9 bb 12 eb 1e bc 37 5a 5e bd d5 00 be 3c
       -0.006628651 -0.0096996 -0.054285254 0.023193756
000090 90 6b b5 b8 45 66 91 bd d1 c2 02 3c 13 1b 72 3d
       -8.650788e-05 -0.070995845 0.007981018 0.05910785
0000a0 38 b1 c7 3d 66 35 13 3c 88 ae 3d 3d 51 17 48 bd
       0.09750599 0.008984899 0.046309024 -0.04885036
0000b0 60 e4 39 bc ab d3 0d 3b 54 b2 38 bd df 75 2f 3c
       -0.011345953 0.0021641057 -0.045091942 0.010709255
0000c0 17 51 9c bc 1f 93 f0 3a b2 40 df 3c b8 d5 fd bc
       -0.019081635 0.0018354392 0.027252529 -0.030985698
0000d0 a3 b6 b3 3c 87 58 da 3c e4 f8 3b bc 9a 70 1f bd
       0.021937674 0.026653541 -0.011472914 -0.038925745
0000e0 25 79 89 3b 7b 24 38 bd 29 9e e6 bd a9 23 c7 bb
       0.0041953498 -0.044956665 -0.112606354 -0.006077249
0000f0 b4 e7 c8 3b 05 36 a7 bd 80 1b 3d bb b5 0e b8 3a
       0.006131137 -0.081646 -0.0028855503 0.0014042469
000100 1d dd f3 3c 44 a8 1e be 47 e8 ca 3c ab 58 0a 3c
       0.029768521 -0.15493876 0.024768962 0.008443992
000110 fd d2 db 3d 16 b8 f3 bd be 5d cf 3a 4f 79 19 bd
       0.10733602 -0.11900346 0.0015820784 -0.037469205
000120 f0 47 08 3b 5b 11 9f 3c 50 60 2d 3e 3f 37 e8 bb
       0.0020794831 0.019417455 0.16931272 -0.007086664
000130 0e e0 13 3d 74 d2 c1 bc fd 69 5b bc e5 c2 8e 3c
       0.036102347 -0.023659922 -0.013391969 0.017426917
000140 57 01 03 3c 70 67 59 3d 3c ab 47 bd 0a 9b 97 bc
       0.007995925 0.05307716 -0.048747286 -0.018506546
000150 0f 73 f5 ba 53 c9 a0 bd dc 3d e1 3b 07 84 9e bc
       -0.0018726307 -0.078508995 0.0068738293 -0.019350065
000160 0a 2f 76 3d 75 47 2c bd 92 29 be bb 0e b1 d4 3c
       0.060103454 -0.042060334 -0.0058032954 0.025963333
000170 30 93 77 bc d6 a6 c0 3c ab 0f b1 bb 44 97 a2 3b
       -0.015110776 0.023517054 -0.005403479 0.00496188
000180 b8 ba 36 be 59 4c 9d 3c f8 0d 42 39 11 84 97 3d
       -0.17844665 0.019201444 0.00018506486 0.073982365
000190 21 05 ab 3c 1c 86 70 bc 8a 0c b8 3c 82 cb b5 ba
       0.02087647 -0.014680412 0.022466917 -0.0013869854
0001a0 d1 2e 21 bd ab 5b 25 bd af a5 1e bd ef c6 62 3b
       -0.03935129 -0.040370625 -0.038732227 0.0034603437
0001b0 3f fa 6e bc 26 93 1c bd c4 9a 80 ba 5f d5 39 3d
       -0.0145860305 -0.03822627 -0.0009811749 0.045369502
0001c0 1c ce fa 3c ab c9 f4 3c 07 72 5e bd 06 c1 e4 bb
       0.030615859 0.029881319 -0.054307964 -0.006981018
0001d0 7a 01 dc bc 6a 53 a5 3d 1b 32 68 3c 07 3e da 3c
       -0.026856173 0.080725506 0.014172102 0.026640905
0001e0 08 1a c6 3b 32 17 92 3d fe 53 28 bd db ec 32 3c
       0.0060455836 0.071333304 -0.041095726 0.010920729
0001f0 91 12 ec 3c 94 a5 8b bc f5 44 92 bc c4 71 9a 3b
       0.028817447 -0.017046727 -0.017855147 0.004713269
000200 fb cf 60 3c 05 7b aa bb f9 27 5e bc 97 6a d6 3d
       0.013721461 -0.0052026534 -0.013559335 0.10469549
000210 d1 40 8e bd 05 a8 8b bc 20 cd 7a bd 43 d1 60 bd
       -0.069459565 -0.017047891 -0.06123078 -0.054887068
000220 58 1a a1 bb 1d 4f 85 3c 16 cc 65 bc f0 a0 79 bc
       -0.0049164705 0.016273076 -0.014025709 -0.015236124
000230 fb 48 1f bd 20 c7 30 3d c3 48 11 bd 3c 51 c6 bc
       -0.03888796 0.04315865 -0.03546978 -0.024208657
000240 b4 58 0b 3d 35 40 0e bc 5a de 3a bd bf f8 0f 3c
       0.03402014 -0.0086823 -0.045622207 0.008787333
000250 0a eb 25 bd 3e 4c 97 3c 84 e2 57 3d 90 94 2c bc
       -0.040507354 0.018468972 0.052706257 -0.010533467
000260 65 1d 50 bd 59 bc c9 bc 33 2a a6 3b 9a 3f d2 3c
       -0.050809283 -0.024625944 0.0050709485 0.025665093
000270 2c 95 98 bd 31 f5 9c 3c 2e c3 86 bc fb 24 ac 3d
       -0.07450327 0.019159885 -0.01645049 0.08405491
000280 df 82 6d 3d 0e ed 16 bd ca c6 a8 3d 64 5d 9f b9
       0.057986137 -0.036847167 0.08241041 -0.00030396425
000290 06 ea 04 bd d4 8c 8b 3c f7 8b 44 3d c3 df 3b bb
       -0.032449745 0.017034926 0.047985043 -0.0028667308
0002a0 24 6a 9d 3d 26 81 e6 3d 69 d5 d5 bc df 83 55 3b
       0.0768626 0.11255102 -0.026102738 0.0032579822
0002b0 9e 77 d7 3c 19 58 d3 bc 22 ec 4a bd a4 83 f9 3b
       0.026302155 -0.025798844 -0.0495416 0.0076145697
0002c0 56 59 43 bd 41 c5 2a bd 58 74 12 bc 89 ba c5 3d
       -0.04769262 -0.041692022 -0.008938871 0.096547194
0002d0 ee 77 f0 bd d0 e0 80 bd 4b 40 40 bd 4f 8d 3d 3d
       -0.11741625 -0.062928796 -0.046936315 0.04627734
0002e0 dc 02 85 bc a1 4a ed 3c 18 01 bf bd c3 43 4f 3c
       -0.016236715 0.02896625 -0.093263805 0.012650433
0002f0 bd 50 7a bd 9f 7c 50 3c 8f 52 d2 bb ab 46 53 3d
       -0.061112154 0.0127250245 -0.006418533 0.051581066
000300 0c fd 09 3d 0b 66 a8 bd fb e2 bf 3b 1f 41 5d bd
       0.03368859 -0.08222588 0.0058559156 -0.054017182
000310 5e 5b 12 bc 14 32 8a 3c a2 b8 53 bd 95 c3 f3 3d
       -0.008932916 0.016869582 -0.05168975 0.11902539
000320 0d f6 21 bd 2e e7 4d bd 2d bc fe ba 03 d8 92 3b
       -0.039541293 -0.0502693 -0.0019434743 0.004481317
000330 45 b5 88 bc b8 51 57 bd 60 87 03 3c 67 ba 9a 3c
       -0.016687999 -0.052568167 0.008027881 0.018887712
000340 48 00 fb bd d8 95 b0 bd 2d 32 4f bd fe d1 f3 bb
       -0.12255913 -0.086223304 -0.05058496 -0.0074408045
000350 94 c4 14 bc f3 0f 0d bd 4a 77 83 3d cd 39 8a bc
       -0.009080071 -0.03443904 0.06419237 -0.016873265
000360 4c 00 81 bd 50 88 95 bc 4f 1d 9a 3d fc 67 a6 bc
       -0.06298885 -0.018253475 0.075251214 -0.020313255
000370 07 b0 0a 3c 6e e8 b9 bc 0e 4f 54 bc 74 ce b2 ba
       0.00846482 -0.022693839 -0.012958301 -0.001364185
000380 57 0a 81 bd 8e 3b 38 bd c2 33 c6 bc 39 ea e0 bc
       -0.063008 -0.04497867 -0.024194602 -0.027455436
000390 e8 6e 27 3d 6b ba 0c bc 0a f0 fa 3b 01 99 2b 3d
       0.040877253 -0.008589367 0.0076580094 0.041893963
0003a0 f9 c6 6b 3d a0 64 37 bb 05 25 3a bd a7 be a4 bc
       0.057562802 -0.002798356 -0.04544546 -0.020110441
0003b0 95 76 c0 bc f4 a8 5c bd 44 45 10 3d b6 20 46 3d
       -0.023494044 -0.053872064 0.035222307 0.04837104
0003c0 1c 28 9f 3c 8a 23 02 bd 08 0e 8d bd 2d 93 0c 3c
       0.019428305 -0.031772174 -0.06887442 0.008580011
0003d0 e3 a7 56 bb 23 1e be 3d d2 0f 4e 3d 99 f9 f9 ba
       -0.0032753877 0.09283092 0.050308056 -0.0019071578
0003e0 67 69 07 3d 92 b9 84 bb a8 e6 93 3d 0b 28 0b bd
       0.033059504 -0.004050442 0.072217286 -0.033973735
0003f0 de a6 69 bc 7d cb f4 bc de 4d 1f bd 89 ee 12 bd
       -0.014260976 -0.029882187 -0.03889262 -0.035872016
